saved_models/main_5(2)_best_model.pth (torch, 43692 bytes, 5 tensors)

fc1.weight f4 [128, 14]
0	0xbd8bfaea	-0.068349674
1	0xbdf98442	-0.12183429
2	0x3b8decae	0.004331193
3	0x3e1adf2a	0.15124193
4	0x3df4cfd2	0.11953701
5	0x3df54d53	0.11977639
6	0x3b807931	0.003920697
7	0xbe2b3c7c	-0.16722292
8	0x3d8332ab	0.064061485
9	0xbdcb4803	-0.099258445
10	0xbbd5c0b4	-0.006523216
11	0x3e4941bd	0.19653983
12	0xbf213464	-0.62970567
13	0xbf8e060b	-1.1095594
14	0xbfe994cc	-1.8248534
15	0x3bee18c4	0.007266136
16	0xbdb841d9	-0.089969344
17	0x3e05268e	0.13002989
18	0x3e418b3c	0.1890077
19	0x3e5c3b81	0.21507074
20	0x3d044fac	0.032302544
21	0x3d4b46f0	0.0496282
22	0xbb02f468	-0.0019982103
23	0xbd893a46	-0.06700568
24	0x3c56b5ee	0.013104899
25	0x3ea12052	0.3146997
26	0xbcf1b668	-0.029505923
27	0xbecbf41c	-0.39834678
28	0xbc885c29	-0.016645508
29	0x3ead8379	0.33889368
30	0x3c371c3e	0.011176167
31	0x3dd5ca89	0.10439021
32	0x3de7c075	0.11316005
33	0x3de179f3	0.11009588
34	0x3dc7eef6	0.09762375
35	0xbe944635	-0.28959814
36	0x3d85b019	0.065277286
37	0x3d115c96	0.035488687
38	0x3c16754e	0.009183241
39	0x3e95152b	0.29117712
40	0x3d397007	0.045272853
41	0xbf9d9ab7	-1.231284
42	0xbc7f7932	-0.01559286
43	0xbca91303	-0.020638948
44	0x3e56588e	0.20932218
45	0xbd4e2893	-0.050331663
46	0xbdf6c296	-0.12048833
47	0xbe295cbf	-0.16539286
48	0xbc0093c1	-0.007847727
49	0x3d636b86	0.055522464
50	0xbb53255a	-0.0032218308
51	0xbe0e5148	-0.13898194
52	0x3b79e53a	0.0038131014
53	0xbd1a6f91	-0.037704054
54	0x3d04ac7e	0.032391064
55	0x3f848b71	1.0355054
56	0x3d73ffa1	0.05956996
57	0x3d6ed89b	0.05831204
58	0xbd28c1a0	-0.04120028
59	0x3e69b086	0.22821245
60	0xbe30ca52	-0.17264679
61	0xbe2dcba3	-0.16972212
62	0xbd21ab91	-0.03947026
63	0xbdcf3711	-0.10117925
64	0xbc0328c7	-0.008005328
65	0xbe0323f3	-0.12806682
66	0xbe56f674	-0.20992452
67	0x3e812e82	0.25230795
68	0xbe3d397c	-0.1847896
69	0x3eccd9ca	0.4000991
70	0xbce56042	-0.028
71	0xbd43f80a	-0.04784397
72	0x3e352e1b	0.17693369
73	0xbdcdc56f	-0.10047423
74	0xbdf75c71	-0.12078179
75	0xbe43e02b	-0.19128482
76	0xbbec84ec	-0.007217994
77	0xbdb8d8af	-0.09025704
78	0x3ca16400	0.019701004
79	0x3cdb12ca	0.026742358
80	0xbc2efc4d	-0.01068027
81	0x3bb8e58b	0.005642598
82	0xbcd7cb05	-0.026341924
83	0x3f07836a	0.52934897
84	0xbe4b8edd	-0.19878717
85	0x3f6d6f8d	0.9274834
86	0xbe0bcf5c	-0.1365332
87	0xbd2496aa	-0.040182747
88	0xbca5bbf3	-0.020231223
89	0x3ca43a6a	0.020047385
90	0xbc0960d3	-0.008384901
91	0x3d3faf49	0.046798024
92	0xbb1b01ea	-0.0023652264
93	0xbe1d3837	-0.15353476
94	0xbce1e3b4	-0.027574398
95	0xbe1689d9	-0.14701022
96	0xbc3932b3	-0.011303592
97	0xbf0f4b10	-0.5597391
98	0x3ef58f0e	0.47960705
99	0x3f37025c	0.71487975
100	0xbe3022ed	-0.17200823
101	0xbe575241	-0.21027471
102	0xbe231820	-0.15927172
103	0xbde07e5e	-0.10961603
104	0x3c569630	0.013097331
105	0xbe0208ce	-0.12698671
106	0x3cf96c60	0.030447185
107	0xbcf31068	-0.029670909
108	0x3b3935a2	0.0028260727
109	0xbc93d5ad	-0.018046224
110	0xbcb9a670	-0.022662371
111	0xbf2e66cd	-0.6812561
112	0xbe56d32d	-0.20978995
113	0xbe6044e4	-0.2190128
114	0xbd8ae1bd	-0.067813374
115	0x3e81dfad	0.25365964
116	0x3e915423	0.28384504
117	0x3e9d06dc	0.30669296
118	0xbb0664da	-0.002050689
119	0xbb66ee34	-0.0035237195
120	0xbb38b557	-0.002818426
121	0x3d6f89ed	0.058481146
122	0xbb6dcd31	-0.0036285634
123	0x3d9193fb	0.07108303
124	0xbd093301	-0.033495907
125	0xbf816ffc	-1.01123
126	0xbd0f5a2a	-0.034998097
127	0xbd55bfe3	-0.05218495
128	0xbdc6d179	-0.097079225
129	0xbe35a9d1	-0.17740561
130	0xbe80ea25	-0.25178638
131	0xbe4d5b0e	-0.20054266
132	0x3d9cb792	0.07652201
133	0xbec6db01	-0.38838962
134	0x3dcc3a48	0.09972054
135	0xbe21a565	-0.1578575
136	0xbe452cbd	-0.19255348
137	0xbec274e9	-0.3797982
138	0x3ed52909	0.4163287
139	0x3ee9d259	0.45668295
140	0xbca71b8a	-0.020398874
141	0xbcbb8ab0	-0.02289328
142	0x3ea7fd1a	0.3281029
143	0xbe0477cb	-0.12936322
144	0xbe18dd4b	-0.14928167
145	0xbe62ff36	-0.22167668
146	0x3d62f52b	0.05540959
147	0xbe13a7cc	-0.14419478
148	0x3d17fd85	0.03710701
149	0xbda8a4cf	-0.0823456
150	0x3cbb7dd4	0.022887148
151	0x3d3f8d3e	0.04676556
152	0xbd06b26f	-0.03288501
153	0x3f8717d7	1.055415
154	0x3be454e9	0.00696813
155	0x3bd335f8	0.0064456426
156	0x3d8fcf76	0.07021992
157	0xbdfa370e	-0.12217532
158	0xbe17e11e	-0.14831969
159	0xbe32a987	-0.17447482
160	0xbbab4a98	-0.005227398
161	0xbcfd246b	-0.030901155
162	0xb80a6204	-3.2993048e-05
163	0x3dd5cbe6	0.10439281
164	0xbc6d789f	-0.01449409
165	0xbd8c71b3	-0.06857624
166	0x3c81fc3c	0.015867345
167	0x3f9fbe4f	1.2479953
168	0x3c00951a	0.007848049
169	0xbbc4e9b5	-0.0060093054
170	0x3e07ec8d	0.1327383
171	0xbe2c1233	-0.16803817
172	0xbe40beef	-0.18822835
173	0xbe688c43	-0.22709756
174	0x3c1913cf	0.009343102
175	0xbd4945d9	-0.049138878
176	0x3c1efa36	0.00970321
177	0x3d014e3f	0.031568762
178	0x3a86049a	0.001022476
179	0xbc983be5	-0.018583247
180	0x3be9c696	0.007134269
181	0x3f8a9ee2	1.0829737
182	0x3a99f105	0.0011744803
183	0x3cb3cbe1	0.021947803
184	0x3ea8c806	0.32965106
185	0x3c29d87f	0.010366558
186	0x3c8df4ab	0.01732858
187	0x3d345311	0.04402453
188	0xbcbd3200	-0.02309513
189	0x3c6dd369	0.014515736
190	0xbc086daf	-0.008326932
191	0xbd5ea3f5	-0.05435558
192	0xbe979643	-0.29606828
193	0xbdb36ebd	-0.08761356
194	0xbc6603f9	-0.014039033
195	0x3f0d8a44	0.552891
196	0xbbe10a24	-0.006867664
197	0x3c1e3370	0.009655818
198	0x3e8dcf1f	0.27697083
199	0xbb00023c	-0.0019532582
200	0xbdbea7cf	-0.09309351
201	0xbe98f486	-0.29874057
202	0x3d231e5e	0.039823882
203	0xbe520e32	-0.20513228
204	0x3d5005a9	0.050786648
205	0xbd84e2d4	-0.064885765
206	0xbccc8866	-0.024967384
207	0xbdcd2ddc	-0.100185126
208	0xbc8468c2	-0.016163234
209	0x3f825e83	1.0185093
210	0xbd7e29aa	-0.062051453
211	0xbdbd697b	-0.092486344
212	0xbe06344d	-0.13105889
213	0x3e6552cf	0.2239487
214	0x3e7cfbae	0.24705383
215	0x3e9ca04e	0.30591053
216	0xbb494db0	-0.0030716471
217	0xbd85c36a	-0.06531413
218	0x3b950685	0.0045478963
219	0x3e3af27a	0.1825656
220	0xbcb28439	-0.021791564
221	0x3d87b5a9	0.06626446
222	0xbc84aeca	-0.016196627
223	0xbf5197b3	-0.818721
224	0x3bbff2d5	0.0058578053
225	0xbc30f185	-0.01079977
226	0x3dd482ec	0.10376534
227	0x3d87958f	0.06620323
228	0x3d0d2bed	0.03446572
229	0x3c919c58	0.017774746
230	0xbc270778	-0.010194652
231	0x3c911874	0.017711855
232	0xbc041a62	-0.008062931
233	0x3d3bb3b6	0.045825683
234	0xbc259005	-0.010105138
235	0xbd48deb6	-0.04904052
236	0x3d1c505b	0.03816257
237	0x3f91590f	1.1355304
238	0xbe1a0ca8	-0.1504389
239	0xbdc38d88	-0.09548479
240	0x3e99ac0b	0.3001407
241	0xbc14c74a	-0.009080717
242	0xbdde8f7a	-0.1086721
243	0xbe75d542	-0.24007133
244	0xbd5b43ad	-0.053531338
245	0x3e5cb972	0.21555117
246	0xbd8e0501	-0.06934548
247	0x3dadcef0	0.08486736
248	0x3e2db0bf	0.16961955
249	0xbcc84cf4	-0.024450757
250	0x3d72251c	0.05911742
251	0x3f6a80e0	0.916029
252	0xbeaca95c	-0.3372296
253	0xbe1cdb51	-0.15318038
254	0xbdd90dab	-0.1059831
255	0xbdd11895	-0.10209767

fc1.bias f4 [128]
0	0x3e7a1974	0.24423772
1	0x3e26f323	0.16303687
2	0xbe3d6851	-0.18496825
3	0xbeb967c3	-0.36211976
4	0x3da50084	0.08056739
5	0xbd9734fe	-0.07383154
6	0x3e029865	0.12753446
7	0xbc3c788a	-0.011503348
8	0x3e88c450	0.26712275
9	0xbeba0ab2	-0.36336285
10	0xbedc399c	-0.43012702
11	0xbd1ddd11	-0.038540903
12	0xbe091ee7	-0.13390695
13	0xbde08c92	-0.10964312
14	0xbef4ddc3	-0.4782544
15	0x3e91ccf3	0.28476676
16	0xbe9f83da	-0.31155282
17	0xbf1c39b7	-0.61025566
18	0xbe90fb3f	-0.28316686
19	0x3a4ecd4a	0.0007888867
20	0xbe25a652	-0.16176727
21	0xbf02373b	-0.50865525
22	0xbee49af7	-0.4464948
23	0xbd655085	-0.055984993
24	0xbcd707ee	-0.026248898
25	0x3e8b2a13	0.27180538
26	0xbdfe4e04	-0.12417224
27	0x3eec4628	0.46147275
28	0xbe0fd1e2	-0.14044908
29	0xbde9c858	-0.11415166
30	0xbd279980	-0.040917873
31	0x3eed7aaa	0.46382648
32	0xbe2981d0	-0.16553426
33	0x3d52c009	0.05145267
34	0xbeea4352	-0.45754486
35	0xbe20dc52	-0.15709046
36	0xbe3d7b39	-0.18504037
37	0x3c00bcf2	0.007857548
38	0xbdc8b2b7	-0.09799712
39	0xbe240fa1	-0.16021587
40	0xbe49b5d7	-0.19698273
41	0x3e7c6647	0.2464839
42	0x3dcf907c	0.1013498
43	0xbd910cce	-0.070825204
44	0x3c61e01a	0.01378634
45	0xbdb28022	-0.08715846
46	0xbec39fda	-0.38207895
47	0x3d60765d	0.05480038
48	0xbea2a383	-0.31765375
49	0xbe9a574e	-0.30144733
50	0x3be58dc4	0.007005425
51	0xbe4be519	-0.19911613
52	0x3c8351ad	0.016030157
53	0xbdb9aa6a	-0.09065707
54	0xbebc9dc6	-0.36839122
55	0xbec41e0b	-0.3830417
56	0xbe572647	-0.21010695
57	0xbe0f5ca5	-0.14000185
58	0x3e0d1c24	0.13780266
59	0xbeb43802	-0.3519898
60	0x3e94dd15	0.29074922
61	0xbde22fef	-0.11044299
62	0xbe226167	-0.15857469
63	0xbdc01afe	-0.09380148
64	0xbe54449f	-0.20729302
65	0xbe80e272	-0.25172764
66	0xbe830c64	-0.2559539
67	0x3d5594fe	0.052144043
68	0x3ce2a4f4	0.027666546
69	0xbcfed712	-0.031108413
70	0x3eec0b8c	0.4610256
71	0xbe4e543a	-0.20149317
72	0x3d05b47b	0.032642823
73	0x3b41a6fb	0.002954899
74	0x3ea87d30	0.3290801
75	0xbe923741	-0.2855778
76	0xbe6b09ce	-0.22952959
77	0xbe4b3591	-0.19844653
78	0xbe01d11f	-0.1267743
79	0xbe09d91a	-0.13461724
80	0x3ebc4b44	0.36776173
81	0x3e3f0ef6	0.18658051
82	0x3e8ec54c	0.278849
83	0xbe169374	-0.14704686
84	0xbe7399f4	-0.23789197
85	0x3c678acf	0.014132216
86	0xbe79bd09	-0.24388517
87	0xbd9ca811	-0.076492436
88	0xbe296257	-0.1654142
89	0xbe3c9e4b	-0.18419759
90	0xbf039eb1	-0.5141402
91	0xbe2f4769	-0.17117085
92	0x3d9f652c	0.07782969
93	0xbea147ad	-0.31499997
94	0xbed36469	-0.41287544
95	0x3dadc928	0.08485633
96	0x3e1b192e	0.15146324
97	0xbd38bc3d	-0.045101393
98	0xbf05e20a	-0.52298033
99	0xbe6170e2	-0.22015718
100	0x3d40a46f	0.047031816
101	0xbe49fe4a	-0.1972591
102	0xbd908ace	-0.07057725
103	0x3e13f5b4	0.14449197
104	0xbd2f4d4e	-0.042798333
105	0xbeb92b5c	-0.36165893
106	0xbe0d616d	-0.13806696
107	0x3c091245	0.008366172
108	0xbe144e36	-0.1448296
109	0x3ecfe321	0.40602973
110	0x3e36a258	0.17835367
111	0xbe83d98e	-0.2575192
112	0xbee998a0	-0.45624256
113	0xbd14aa59	-0.03629527
114	0x3e70c380	0.23512077
115	0x3e32f337	0.17475592
116	0xbd6974c0	-0.056996107
117	0x3e1e421f	0.1545491
118	0x3db560ce	0.08856355
119	0x3e89430a	0.2680896
120	0x3ea4353a	0.3207186
121	0xbea4b676	-0.32170457
122	0xbe5f4f5c	-0.21807617
123	0xbeb0b5a6	-0.34513587
124	0x3d9bd87a	0.07609649
125	0xbd209dec	-0.039213106
126	0xbe417d95	-0.18895562
127	0x3e3eccd6	0.18632826

fc2.weight f4 [64, 128]
0	0x3dac5536	0.0841469
1	0xbceef9c5	-0.029171834
2	0x3dc94615	0.0982782
3	0xbe39de85	-0.1815129
4	0xbe4372df	-0.19086789
5	0xbc54857d	-0.012971279
6	0x3de12ad4	0.10994497
7	0xbdc597c9	-0.09648091
8	0x3dfdc2e8	0.12390691
9	0xba3c20c6	-0.00071765145
10	0xbdf6a1cc	-0.12042579
11	0xbd2f32bf	-0.042773005
12	0xbda3a4c9	-0.07990415
13	0xbe836435	-0.2566239
14	0xbe0919c2	-0.13388732
15	0x3dfa35da	0.122173026
16	0xbd9a2153	-0.07525887
17	0xbd4affef	-0.049560484
18	0xbd98f0e5	-0.07467822
19	0x3d27f102	0.041001327
20	0x3deacd2c	0.11464915
21	0xbe3aba4d	-0.1823513
22	0x3d518c18	0.051158994
23	0x3ddcc5c5	0.10779909
24	0xbd14c30c	-0.036318824
25	0xbd0bda2a	-0.034143604
26	0xbd36c6ac	-0.044623062
27	0x3e8c6357	0.2741954
28	0xbda932a6	-0.082616135
29	0xbd2f2599	-0.042760465
30	0x3d8cca0e	0.068744764
31	0x3d9de829	0.07710297
32	0xbca968d5	-0.02067987
33	0x3dda7277	0.10666364
34	0xbecf3dde	-0.40476888
35	0xbd3c4b1d	-0.04597007
36	0xbd361263	-0.04445113
37	0xbd17f0e8	-0.03709498
38	0x3d8bc200	0.06824112
39	0x3d4f854c	0.05066423
40	0xbe243846	-0.16037092
41	0xbd145c6c	-0.036220953
42	0x3e6b184e	0.2295849
43	0x3dd781d5	0.1052281
44	0x3b8163c9	0.003948663
45	0xbc1450fb	-0.00905251
46	0xbebb4347	-0.36574766
47	0x3e373527	0.1789137
48	0x3c85ea61	0.016347112
49	0xbbfa0f5f	-0.007631227
50	0x3d10da9f	0.035364743
51	0xbdff05ba	-0.12452264
52	0x3dbb5147	0.09146362
53	0x3a4bf3e4	0.0007780178
54	0xbd835b56	-0.06413905
55	0xbe2d3d16	-0.16917834
56	0xbae4b875	-0.0017449992
57	0x3e1684b1	0.14699055
58	0xbc78ad59	-0.015178048
59	0xbe1dd7cd	-0.15414353
60	0x3cba523f	0.022744296
61	0xbe8c0d42	-0.27353865
62	0xbd2b9896	-0.041893564
63	0xbd345655	-0.044027645
64	0xbd91f318	-0.071264446
65	0x3d041c11	0.03225333
66	0xbd8e5565	-0.069498815
67	0x3d9eea31	0.07759512
68	0xbd73ecf5	-0.05955215
69	0xbd47f836	-0.048820697
70	0x3e49f187	0.19721042
71	0xbb4c85be	-0.0031207646
72	0xbd487cd1	-0.04894716
73	0x3d2eca84	0.042673603
74	0x3d953faf	0.07287537
75	0x3daecc5e	0.08535074
76	0xbd949cf5	-0.072565
77	0xbc333164	-0.010937069
78	0xbda5b148	-0.08090454
79	0x3e1204c7	0.14259635
80	0x3e591f8a	0.21203437
81	0x3d5534aa	0.052052177
82	0x3da84071	0.08215416
83	0xbc9c26c5	-0.019061456
84	0x3d8edc3f	0.06975602
85	0x3da14a9d	0.078755595
86	0xbca5e294	-0.020249642
87	0x3e2fd491	0.17170931
88	0xbd583496	-0.052784525
89	0x3c8cbe09	0.01718046
90	0xbdc8c1e0	-0.09802604
91	0xbc502d9e	-0.0127061885
92	0x3d1a8b18	0.037730306
93	0xbca133fc	-0.019678108
94	0xbda2fae2	-0.07958008
95	0xbc34b832	-0.011030244
96	0x3d0b38e2	0.033989795
97	0xbc50a7c5	-0.012735312
98	0x3bb968cc	0.0056582447
99	0x3d91e47a	0.071236566
100	0x3deb541f	0.11490654
101	0xbd7226d4	-0.05911906
102	0xbd05a8e1	-0.03263176
103	0x3dd73b33	0.10509338
104	0xbd8c6126	-0.06854467
105	0x3dd09ae5	0.10185794
106	0xbb9b9808	-0.004748348
107	0x3e1fe955	0.15616353
108	0xbe6ff35c	-0.23432678
109	0xbd33c8fd	-0.04389285
110	0x3dacb00d	0.084320165
111	0x3d444957	0.047921505
112	0xbe3154df	-0.17317532
113	0xbd2d5232	-0.042314716
114	0xbd70da99	-0.05880222
115	0x3d44c62d	0.048040558
116	0x3d29e29e	0.041475885
117	0x3efbe546	0.4919836
118	0xbd6a61cb	-0.05722217
119	0x3d6b6101	0.057465557
120	0x3c5b9749	0.013402768
121	0x3dba9873	0.09111109
122	0x3d8f73c7	0.07004505
123	0xbbd4c8a2	-0.006493644
124	0x3db5bdcd	0.08874092
125	0xbc8d99b1	-0.0172852
126	0xbe609e92	-0.2193549
127	0xbcbac9e4	-0.022801347
128	0xbd9c385e	-0.07627939
129	0xbd9b5920	-0.075853586
130	0x3d11dd89	0.035611663
131	0xbd220489	-0.039555106
132	0xbd6db76b	-0.05803625
133	0x3cbaa092	0.022781644
134	0xbc933c3b	-0.017973056
135	0xbd834ed2	-0.06411518
136	0xbd299530	-0.041402042
137	0xbd3b5374	-0.045733884
138	0xbd9bb43e	-0.07602738
139	0xba6e8ae5	-0.00090996764
140	0xbc75630b	-0.014977227
141	0xbdba4ca7	-0.090966515
142	0xbd8332cb	-0.06406172
143	0x3cc4373e	0.023952123
144	0xbd321096	-0.04347285
145	0xbde1a3c4	-0.11017564
146	0x3d5f87dd	0.05457293
147	0x3da78f08	0.08181578
148	0xbdac988a	-0.08427532
149	0xbd1524f4	-0.036412194
150	0xbdba6353	-0.09100976
151	0xbd801f8f	-0.06256019
152	0xbd94821f	-0.07251381
153	0xbdc94eb0	-0.098294616
154	0xbd125caa	-0.035732903
155	0x3d89a6e1	0.06721283
156	0x3abd4e19	0.001444283
157	0xbc1a75c4	-0.009427492
158	0x3cb65484	0.022257097
159	0x3cdb3b85	0.02676178
160	0xbddc7542	-0.10764553
161	0xbdcb838a	-0.099371985
162	0xbd8734d2	-0.066018716
163	0x38e5fcfd	0.00010966694
164	0xbd5c10a2	-0.0537268
165	0x3d378c07	0.044811275
166	0xbc62ff53	-0.013854819
167	0xbcf3f3c2	-0.029779319
168	0xbc3f21af	-0.011665746
169	0xbdad73e2	-0.084693685
170	0xbd47f5f6	-0.04881855
171	0xbd822b43	-0.06355908
172	0xbc821ce4	-0.015882917
173	0x3dab6e57	0.08370655
174	0xbd063988	-0.03276971
175	0xbc3a4634	-0.011369277
176	0xbde32ed5	-0.11092917
177	0xbd65b1b1	-0.056077663
178	0x3d869f6f	0.06573378
179	0x3d009d2b	0.031399887
180	0xbddaa060	-0.1067512
181	0x3cfdb905	0.030972013
182	0x3d6e2227	0.05813804
183	0xbd103c3e	-0.0352137
184	0x3ce84a53	0.028355753
185	0xbca83705	-0.020534048
186	0x3d7511a7	0.059831288
187	0x3c0d65a2	0.008630188
188	0xbd63a4b0	-0.05557698
189	0xbdb2a378	-0.087225854
190	0x3d074ceb	0.03303234
191	0x3d017fce	0.031616025
192	0xbdb01e80	-0.085995674
193	0x3a58a043	0.0008263627
194	0x3c399c38	0.011328749
195	0xbd2daab4	-0.042399123
196	0xbcb31ef3	-0.021865344
197	0xbd27caa0	-0.040964723
198	0xbd4e7fd9	-0.050414894
199	0x3d4b41c9	0.049623284
200	0x3d1aba8b	0.037775557
201	0xbdb7b115	-0.089693226
202	0xbd6342ed	-0.055483747
203	0xbd7abc3e	-0.061214678
204	0xbcc352ad	-0.023843134
205	0xbc8a8896	-0.016910832
206	0xbd8d7d2b	-0.069086395
207	0x3daad5f5	0.0834159
208	0x3ce23031	0.02761087
209	0xbc59a456	-0.01328381
210	0xbdd73bfc	-0.10509488
211	0x3d0e4769	0.03473607
212	0x3d24e75e	0.04025971
213	0xbd81e53a	-0.063425496
214	0xbd2be781	-0.041968826
215	0x3d986d2c	0.07442698
216	0xbce83df7	-0.02834986
217	0x3d5cd44e	0.053913407
218	0xbd17edbb	-0.03709195
219	0x3caf1769	0.021373468
220	0xbdaa7a4a	-0.08324106
221	0xbc1b2526	-0.009469306
222	0xbd8b39e4	-0.06798151
223	0xbd3a2927	-0.045449402
224	0xbd02449f	-0.031803723
225	0xbda1190b	-0.07866105
226	0xbbd40c6a	-0.0064712064
227	0xb951c484	-0.00020005001
228	0xbdace28d	-0.08441649
229	0x3d015582	0.031575687
230	0xba913994	-0.0011079782
231	0xbcb680ac	-0.022278152
232	0xbdaa0e1e	-0.08303474
233	0xbc23e0f7	-0.010002366
234	0xbd78ee0e	-0.0607739
235	0xbd13e327	-0.0361053
236	0xbd03372f	-0.03203505
237	0xbd1de34a	-0.038546838
238	0xbd0bbc99	-0.034115408
239	0x3d3e30b0	0.04643315
240	0x3adc06fe	0.0016786752
241	0xbda8bb50	-0.08238852
242	0xbd9c8885	-0.076432265
243	0xbd57a89c	-0.052651033
244	0x3ceef601	0.029170038
245	0xbdb8d498	-0.09024924
246	0x3c90faf7	0.017697794
247	0x3b66da88	0.003522547
248	0xbd9bec08	-0.07613379
249	0x3d4a18a2	0.049339898
250	0xbcfc89b8	-0.030827388
251	0xbc6cb4a6	-0.014447367
252	0x3d085bba	0.033290602
253	0x3d5bdd52	0.053677864
254	0xbc95763f	-0.01824486
255	0xbd97f56f	-0.074198596

fc2.bias f4 [64]
0	0x3e36a0a6	0.1783472
1	0x3b2d82a7	0.002647558
2	0xbdd8fd6d	-0.10595212
3	0x3d55495f	0.052071925
4	0x3e1e6dae	0.15471527
5	0xbe96a6db	-0.29424176
6	0x3e8d81ed	0.27638188
7	0x3e79ccb5	0.24394496
8	0x3d3c84d3	0.04602511
9	0x3e279a80	0.16367531
10	0x3e5ba108	0.21448147
11	0xbb48a5a0	-0.0030616298
12	0x3e459d35	0.19298251
13	0x3d877d5e	0.06615709
14	0x3df20fed	0.11819444
15	0x3e38230a	0.17982116
16	0x3e5b3d29	0.2141005
17	0x3e12dc28	0.14341795
18	0xbd0cae4e	-0.034345917
19	0xbd36509c	-0.04451047
20	0x3e37f438	0.17964256
21	0x3de07695	0.10960118
22	0x3e3b0a83	0.18265729
23	0x3e8c85be	0.27445787
24	0x3df7f1d8	0.12106675
25	0x3da33759	0.07969541
26	0x3df67f4e	0.12036
27	0x3e7ba33c	0.24573988
28	0x3de4f3bd	0.11179302
29	0x3dc289dc	0.09498951
30	0x3e63bd17	0.22240101
31	0x3dd3e751	0.103468545
32	0xbcabeb52	-0.020986233
33	0x3e873262	0.26405627
34	0x3e922470	0.28543425
35	0x3e0b9d1d	0.13634153
36	0x3e042262	0.12903741
37	0x3e41b978	0.18918407
38	0x3e1371d7	0.14398895
39	0x3e4cda15	0.20005067
40	0x3dbe43ee	0.092903
41	0x3e27f9fa	0.16403952
42	0x3e4d2098	0.20031965
43	0x3df6003d	0.12011764
44	0x3d5ed6d2	0.054404087
45	0x3def6c9f	0.1169064
46	0x3e858fe7	0.2608635
47	0x3ea2c91e	0.31794065
48	0x3e1ec376	0.1550425
49	0x3e670d4a	0.22563663
50	0x3dee38a5	0.11631898
51	0x3e1b829d	0.15186544
52	0x3e45466a	0.19265142
53	0x3e4dc527	0.20094739
54	0x3e46b0ea	0.19403425
55	0x3e7a27df	0.24429272
56	0x3e924731	0.2856994
57	0x3e1a8493	0.15089636
58	0x3da3b85f	0.0799415
59	0x3e222d08	0.1583749
60	0x3dc4a362	0.09601475
61	0x3e72c431	0.23707654
62	0x3e2d16ea	0.16903272
63	0x3dd0e820	0.10200524

fc3.weight f4 [1, 64]
0	0x3db1e7f0	0.08686817
1	0x3ba63e0a	0.0050733136
2	0xbf69e8fe	-0.9137114
3	0x3e83329e	0.25624555
4	0xbe3e7b6f	-0.18601774
5	0x3fa741f2	1.3067
6	0x3dde31dd	0.108493544
7	0x3e230898	0.15921247
8	0xc005632c	-2.084178
9	0x3df73a62	0.120716825
10	0x3f02f0c9	0.5114866
11	0x3ed300fe	0.41211694
12	0x3daac7dd	0.08338902
13	0xbe613700	-0.21993637
14	0xbdc73e40	-0.0972867
15	0x3dc50a07	0.09621053
16	0x3dbbfe98	0.09179419
17	0xbdf7181b	-0.12065145
18	0x3dffb8a9	0.12486393
19	0x3ff58258	1.9180403
20	0xbe0753f2	-0.13215616
21	0xbec566f9	-0.38555124
22	0x3e13f812	0.144501
23	0x3e90c303	0.28273782
24	0xbe0e5d95	-0.13902886
25	0xbdd3840b	-0.103279196
26	0x3e2596a0	0.1617074
27	0x3d96a3fd	0.07355497
28	0x3daa2361	0.08307529
29	0xbe39137d	-0.1807384
30	0x3dd8542b	0.10562929
31	0x3f30070f	0.6876077
32	0xbf52eeeb	-0.8239581
33	0x3e8e954d	0.27848282
34	0x3e068c72	0.13139513
35	0xbdfff97d	-0.12498758
36	0xbe0bd8b7	-0.13656889
37	0xbdaadab1	-0.08342493
38	0xbf747ca4	-0.95502687
39	0x3dea38c2	0.11436607
40	0xbf6b1af5	-0.9183801
41	0xbe8c11be	-0.27357286
42	0x3da1a2bc	0.07892367
43	0x3dca4cd1	0.09877933
44	0xbeeb7c9b	-0.45993504
45	0x3df3425b	0.11877891
46	0x3ef9e66f	0.4880862
47	0x3f9f0fd1	1.2426702
48	0x3dce81dc	0.100833625
49	0x3ef662a9	0.48122147
50	0xbe067c2c	-0.13133305
51	0x3f9edb2d	1.2410637
52	0x3dcf3e32	0.10119285
53	0xbdbe2c91	-0.09285844
54	0xbe06337a	-0.13105574
55	0x3da0e1d8	0.07855576
56	0x3ed9c042	0.42529494
57	0xbda879ab	-0.08226331
58	0xbdf30018	-0.11865252
59	0xbdc142f0	-0.094365954
60	0x3e147dad	0.14501067
61	0x3e5d330f	0.21601509
62	0xbdb65407	-0.08902746
63	0xbe855b30	-0.26046133
