saved_models/main_4_best_model.pth (torch, 43692 bytes, 5 tensors)

fc1.weight f4 [128, 14]
00000000: 8582 82bd 8a39 4cbe 2d0b 2e3e 2f3e 353d
00000010: 7b9d 16bb 75f7 d6be 694a afbd 5f2b 6bbe
00000020: a689 88bc 4b4b 2c3e d2f0 19be b6d6 f1bd
00000030: fccb ed3c ffe3 863f 3508 a93e 66f3 8d3e
00000040: a434 fdbe 781a 9bbe d316 3ebe 84f7 94bd
00000050: f7f8 6d3d 03ad 15bd 33c1 2f3d ca4d bb3c
00000060: cff7 54bd 0fb7 fabe f810 bb3d e63c c7bf
00000070: e5cf c1be 9f11 a4be 93cc 2b3f 87a1 5c3e
00000080: 87f3 29bd 7122 bfbd 8277 033e 8b3c 0bbe
00000090: 5a04 373d 86e4 573b 17fd 9e3d 1a7a a13e
000000a0: 1bb8 f33b 882b ae3f 6c22 61be 0942 d0bb
000000b0: 1e92 6abe 5f6e 743c 7e38 323e cc18 363d
000000c0: e516 0a3e 8b49 32be b136 c3bc 4f46 073e
000000d0: d228 f03d 90c8 8f3e be04 363d 18c6 81bf
000000e0: 1503 293f 89a9 9e3e e2d0 e0be 3285 bfbe
000000f0: 2a27 54be c0e3 eebd 095b 8e3e b476 43bd
00000100: fdf9 66bd 43c4 d0bd d4a6 0d3e 248f d2bd
00000110: e58e 41bd fc0d 2dbe 017e 8e3e 58e6 2cbe
00000120: 941c e23e 55bb a03d ff10 fc3a 52b0 4a3d
00000130: 3eba 16bd a339 20bd abcc 4cbd 10d0 b03d
00000140: 6e4c 7cbe 8870 23bd 626b 163e c982 efbe
00000150: fabf db3e 66e1 833e 6c2a 0ebe c2d0 df3d
00000160: 073f 643e 2aa3 343e 18a7 d9bd 2a17 72be
00000170: 64de 4c3c 11b9 4d3e 0412 1c3e 459a 443e
00000180: fd3c 013e 4988 a5bf 8a91 8fbd d6bb 8c3b
00000190: ffd8 c3bd 1d7d ed3d 3aea 583c 93f7 b13d
000001a0: 1587 1ebd 015c ccbd 3687 333b a073 473e
000001b0: 2515 9e3d da1a d13e 06d9 51bd 88ad d5bf
000001c0: ab31 98be 2b79 1abe 6952 903e 02fc 073e
000001d0: 2b16 debd 7e7c b8be f3c6 033c 73f7 8c3d
000001e0: 3bb0 9dbd 725a 703b fd6b 8abc 89e3 2a3e
000001f0: 55c1 9bbe 27c1 4f3f 3856 80bd af0a 29be
00000200: 6593 0d3c f2e3 003e 05e9 473d e681 263d
00000210: 402c ab3d da77 13be f50e 943d 6dcc 02bb
00000220: 2636 70bd c9b6 e3be c1df 0cbe a7f2 25c0
00000230: 9530 47be 6b3f afbd 6c20 723e 8e9b 123e
00000240: c58b 9dbc 2491 bdbd c84d d0bb 0640 8bbe
00000250: 926a 05bd 61f8 08be feca c53d 5e20 5bbc
00000260: 64bf b73d 8be8 6a3f f2f0 a13e a0c1 51be
00000270: abe9 20bd c16b e4bc 93f5 18be 637a aebd
00000280: 438d c63d ca14 acbe d248 c73d 522c d13b
00000290: 8d1d 113d 6b20 c2be 4603 b63e 06eb 41bf
000002a0: 10a9 8f3e c43f ea3d 45eb c8be c4cf c3be
000002b0: d815 fabc 85f8 eebd 33dd 65be 9bfb a43c
000002c0: bf42 04be 0766 5c3e 5cd4 de3d d364 d7bd
000002d0: e464 5c3d 5a35 08bf eec6 173f 5f27 8f3e
000002e0: 4f2c 0ebf dedb 2b3e e7ed 153e 17ce b63e
000002f0: 7d33 513d 1f05 8c3c 0cca d83c bb95 36be
00000300: 0f04 26be e68c b13e 6864 67be 4a8d a1bf
00000310: 7fbd fcbe 21c2 733e e55e 28be dbdf 83bd
00000320: 58ae 573e 3f3d 843e 8860 d6bd 728d 2dbe
00000330: 820f 29bd 2b26 de3d 3ddc 543c 6851 353e
00000340: 7c46 db3e 8e97 c0be 0a71 8e3d e98d 023f
00000350: 9d35 b1be fd67 98be 456b 44be c484 a8bd
00000360: 39c3 ccbc 9fbe 163e 91dc b3be fb05 6fbe
00000370: d0b0 b83d a1b7 6ebe a52a 9ebe 6390 83bd
00000380: 0a29 90be a99d aa3a d66a c73e f931 703e
00000390: 01cd a03c 5d70 bfbd 49d7 383d 9b4e 73bd
000003a0: 8ec7 083c 0a41 1a3a 61cf 30bd d160 9bbe
000003b0: ebbf c4bd 1e46 883f 9052 0bbf f2cc 85be
000003c0: 5225 87be ec65 9b3d fb2c 153e 6f01 493e
000003d0: cb9e 24be 12ac ce3c d603 c2bb 0044 503e
000003e0: 6c52 fd3d 2e4e 1b3e 7ea0 10bf 9c58 b2bf
000003f0: 2625 543f 5238 853e 9b24 a3bb d09e 77bd
-0.06372551 -0.19943824 0.1699645 0.044248756 -0.002298205 -0.4198567 -0.085591145 -0.22965764
-0.016667198 0.16825597 -0.15033272 -0.11808531 0.029027931 1.0538329 0.33014074 0.2772476
-0.49454224 -0.30293632 -0.18563394 -0.07273772 0.05809876 -0.03654195 0.04290886 0.022864241
-0.05199414 -0.48967788 0.09134096 -1.556546 -0.37853923 -0.32044694 0.6710903 0.21545993
-0.04149201 -0.09332741 0.12838557 -0.13597314 0.044681884 0.0032942607 0.07763117 0.3153847
0.0074377186 1.3607035 -0.21985787 -0.0063555283 -0.22907302 0.014918893 0.17404363 0.044457242
0.13485296 -0.17410867 -0.02382979 0.13210414 0.11726536 0.28082705 0.044438116 -1.0138578
0.6602033 0.3098872 -0.43909365 -0.37406307 -0.20718065 -0.116645336 0.2780383 -0.047720626
-0.05639075 -0.10193684 0.13833171 -0.10281208 -0.047255415 -0.16899866 0.27830508 -0.16884744
0.44162428 0.07848231 0.001923114 0.04948456 -0.03679871 -0.039117467 -0.049999874 0.08633435
-0.2463853 -0.03990224 0.14689401 -0.4677947 0.42919904 0.25757903 -0.1388337 0.10928489
0.22289668 0.17640367 -0.10627574 -0.23641649 0.012504194 0.20090128 0.15241247 0.19199474
0.12620921 -1.2932216 -0.07010181 0.0042948527 -0.09562873 0.11596129 0.013239438 0.08689799
-0.038703043 -0.09978486 0.0027393824 0.19477701 0.07718877 0.408408 -0.05123236 -1.6693583
-0.29725394 -0.15085284 0.28187874 0.13279727 -0.10844072 -0.3603248 0.008043039 0.06883135
-0.07699629 0.0036675003 -0.016897196 0.1668836 -0.30420938 0.811541 -0.06266445 -0.16507982
0.008641099 0.12586954 0.04880621 0.040651225 0.083580494 -0.14401188 0.07229415 -0.0019958273
-0.05864539 -0.44475392 -0.1375723 -2.5929353 -0.19452126 -0.08557018 0.2364518 0.14317152
-0.019231686 -0.09256199 -0.0063569285 -0.27197284 -0.032572336 -0.13375999 0.09657858 -0.013374416
0.08972052 0.9176108 0.3162914 -0.20484018 -0.039285343 -0.027883412 -0.14937429 -0.08519437
0.09694912 -0.3360961 0.09730686 0.006383457 0.035428572 -0.37915358 0.35549372 -0.7574924
0.28058672 0.114379436 -0.39241996 -0.3824445 -0.030527994 -0.11668495 -0.22447662 0.020139506
-0.12916087 0.21523295 0.10880348 -0.105172776 0.053807154 -0.5320641 0.5928792 0.27959725
-0.5553636 0.16783091 0.14641534 0.3570411 0.051074494 0.017092286 0.026463531 -0.17830555
-0.16212486 0.3467781 -0.22596896 -1.2621243 -0.49363324 0.23804523 -0.1644245 -0.064391814
0.210626 0.25827977 -0.104676306 -0.16948488 -0.041274555 0.10847124 0.012991962 0.17706835
0.42827213 -0.37615627 0.06955154 0.5099779 -0.34611216 -0.29766837 -0.19181545 -0.08228448
-0.024995433 0.14721154 -0.35129216 -0.23342125 0.09018099 -0.23312236 -0.3089191 -0.06424024
-0.2815631 0.0013016957 0.38948697 0.23456563 0.019629003 -0.093476035 0.045127187 -0.059401136
0.008348359 0.00058843254 -0.043166522 -0.30347303 -0.09606918 1.0646398 -0.54422855 -0.26132923
-0.2639566 0.075877994 0.1456794 0.19629453 -0.160762 0.025228534 -0.0059208674 0.2033844
0.12369236 0.15166542 -0.5649489 -1.3933291 0.82869184 0.2601953 -0.004978729 -0.06045419

fc1.bias f4 [128]
00000000: 51bd 4abe e080 93be c76b 50be abc8 e93e
00000010: d114 6cbd c9af 77be 5abd 1aba 9af8 073f
00000020: 71b8 31be 3ae4 f33d 2c7c 7cbd 5a4e a4be
00000030: 2fda 84be 2c62 953e e128 093d 6284 e2bd
00000040: afd1 9cbe 5214 d53e cf8a f33d 3330 4f3d
00000050: 5c81 b43e 33e9 82be f091 503e 5d44 36be
00000060: 8c9a 733e 269d 933e 8830 c7be 03f3 ad3e
00000070: 5302 8cbe 1f94 0c3e b250 69bd 4e2f a83e
00000080: 594f 2fbe 347c 01bd fd70 a13d 1b5e 18be
00000090: 87fe d43e ab69 093e 8852 be3d 1d4e b4bd
000000a0: 4fc7 f6bd 8efb 08bf 1ead 09be a159 6abe
000000b0: bd1a bbbd 5cd2 1cbe df0f 87bd a2b4 3bbd
000000c0: f2c9 8dbd 847f de3d 6178 c73e 9a0d 34bd
000000d0: b1c4 a2be 380e 7abe 8709 58be 2653 ac3e
000000e0: 5721 38be af50 74bd b832 2bbd f228 2a3e
000000f0: 9a05 0b3b fa6d 6cbe 894f 55be d7b0 b9be
00000100: 7d31 953e c701 43bd 4a88 01be c9be 363d
00000110: 60cb 413d 1daa 43be 015b 7f3e 0ae8 0c3d
00000120: d4de 29be 87bd 60bd d4d5 71bc 9abd e43d
00000130: 6d85 2e3e 81fa 2dbe 6ae8 2f3e 106e d03d
00000140: 3f14 8a3d 5380 3a3d 8f96 22be 9476 9abe
00000150: c206 9cbe cf24 e33e fdbf da3e 05af 8fbe
00000160: 6e86 963e 88d5 073f 2652 023d 451c 6dbe
00000170: 0210 4e3e b4f9 cc3e 4596 27be 06ae 81be
00000180: 5bac 4cbe 4f4f adbc 2b0f 03bf 8130 3dbd
00000190: 3843 19be 84da 923e 65ce 643e 5d7a 653d
000001a0: 324d 8b3e 777d 363e 1220 ca3d a676 b23e
000001b0: a2b1 1a3e 7b94 80bd 59b7 463e 7acd 33be
000001c0: 5f01 3f3e 6b38 b7be e9ba 4dbd d74d 01bf
000001d0: 6c63 cfbd 3b44 e33e 81b9 543e ef40 fc3b
000001e0: dd2c 4cbe d520 04be 2806 773c a1a6 adbc
000001f0: 58e8 c73c 1af1 2dbe 1376 bcbd 00a6 20be
-0.19798781 -0.2880926 -0.20353614 0.4566091 -0.05763704 -0.2418815 -0.00059028494 0.5311371
-0.17355515 0.11908765 -0.061641857 -0.32091027 -0.2594771 0.29176462 0.03348625 -0.11060406
-0.30628726 0.41617066 0.1189171 0.050583076 0.35254943 -0.25568542 0.2036817 -0.17799516
0.23789424 0.28830832 -0.38904214 0.33974466 -0.27345523 0.13728379 -0.056961723 0.3284859
-0.17120112 -0.03161259 0.07882879 -0.14879648 0.4160044 0.13419215 0.09293085 -0.088039614
-0.12049734 -0.5350884 -0.13444945 -0.22885753 -0.09135959 -0.1531462 -0.06594824 -0.04582656
-0.06923284 0.108641654 0.3895903 -0.043958284 -0.3179069 -0.24419487 -0.21097384 0.33657187
-0.17981468 -0.05964726 -0.041796416 0.16617182 0.0021213056 -0.23088828 -0.20831122 -0.3626773
0.2913932 -0.047609117 -0.12649646 0.04461554 0.047313094 -0.19107862 0.24937059 0.034400977
-0.16588908 -0.054868247 -0.014760453 0.11168976 0.17043085 -0.16990091 0.17178503 0.10177243
0.06742143 0.045532536 -0.15877746 -0.30168593 -0.30473906 0.4436402 0.427246 -0.28063217
0.29399437 0.530602 0.031816624 -0.23155315 0.20123294 0.40034258 -0.16365917 -0.25328082
-0.19987623 -0.021155981 -0.5119502 -0.046188835 -0.14967048 0.2868234 0.22344358 0.056024898
0.27207333 0.17821299 0.09869398 0.34856147 0.15106824 -0.062783204 0.19405879 -0.17558852
0.18652867 -0.3578523 -0.05022708 -0.505094 -0.10126385 0.44387993 0.20773889 0.0076981704
-0.19938989 -0.1290315 0.015077151 -0.021197619 0.024402782 -0.16986504 -0.09202208 -0.15688324

fc2.weight f4 [64, 128]
00000000: 6f41 423c b488 8ebe 26ee f03c c446 26bd
00000010: 0d36 64be f90e 19be 4da3 4cbe a6ba d93d
00000020: 098a d13d 22b6 ebbe 5da3 9d3d 950e ecbe
00000030: 20a5 0abe b56e 86bd d2fc 50bc 3e4b 7dbc
00000040: cd71 493e 295d 99bc 8044 45bf eee2 a23d
00000050: c3a9 57be 0def 853e 575b 64be 1913 54be
00000060: c586 3f3e 829e 1a3d aabf 1cbe 4bf2 be3d
00000070: 43c9 26bd 3cd0 043d e93f f13c a259 bd3e
00000080: 0a0d 3bbe e98e 59bd 667b 8c3d 43ea 7ebd
00000090: 86c9 24bd a602 6ebe 587e 8f3e 3a7f d5bd
000000a0: c0a0 4d3e 376a c6bc d896 8c3d ef4b 113d
000000b0: e27a 63be 4610 b83c 371a 86bd 874c 50bf
000000c0: 70f3 53bd 3aab 043e 94fd 173d 4ba8 74bd
000000d0: aa9f 25be 6ee7 a7bd bb4f 243a 0912 88be
000000e0: 6035 dc3c 3b77 d53d 624f 483c af08 9cbd
000000f0: 1e3d 073e d475 153e c4cc 05bd f715 fb3d
00000100: 49a8 8a3e 8a39 85bb 5822 71bc 63af 59bc
00000110: 6f7f c2ba e251 f33d 7547 a93d fda7 c13d
00000120: acb6 c63d 88fc 3a3d 8b8e b4bb aece 613e
00000130: 9df7 a2bd 1459 e9bd d588 4a3d cda3 c83d
00000140: 4f25 dd3d 2bd2 fb3d 16eb a93d 1dff 74bd
00000150: 8693 98be f184 efbd 3bc3 85be 0899 ce3a
00000160: 0004 473e e775 893e 5da6 81bd 3032 8a3d
00000170: 5e7d a3be e06c db3d 38ab f63d cb0a 4f3d
00000180: 27fc 953d b7e4 0bbe ed00 b63c 60fd 173d
00000190: c828 043a 46d4 503e 1a0d 32be 558d 063e
000001a0: 9f01 103e cd0b b03e a799 473e 36b0 85bd
000001b0: 6e9f 13be ea30 693d 323a 32bd e9ad 6dbe
000001c0: 5357 83bc c930 53bc dd57 533d 13d4 f8be
000001d0: 5aac 36be 5eec 273e 8e67 f83c 84c4 803d
000001e0: 073d 8b3d 7594 b3bd 92fd de3d f8b8 b1bd
000001f0: 4d42 5c3d 6f7c cb3d 70ed dfbe 24a2 bebd
00000200: 7724 b43b 9e59 e13e b87c c6bb 4c15 d53d
00000210: 84f3 5dbe cbd5 65bc eb7f f83d 8948 be3e
00000220: 3911 433d dacb 16be 33ce 1b3e 5828 1fbe
00000230: d2a7 bd3d 9cf3 12be bba5 81bd 7eb5 c6bd
00000240: d348 febb a3c9 11be 8b0e 93bc 5800 833d
00000250: eb4a 593d 9af8 083d 4c14 19be 0cf3 97bf
00000260: 2aae 6dbd 7c9c d6be a209 173e 543a 13be
00000270: 4faa 8fbc ebda 913e 070b 0d3e c627 f63a
00000280: 1e30 ca3d 7078 94bd 4452 79bd a9b4 f2be
00000290: c304 963e 5834 1fbc 0c73 a8bc 1285 fcbd
000002a0: 2d40 db3d c133 49be d454 b7bd 2b9f a93d
000002b0: d224 eabd 7e6a 9abc 7f99 0ebe 9ecc 923d
000002c0: ba8b 323e a606 5a3d 963d 3c3d 81ac fbbd
000002d0: 9062 103d 0428 b53c 88ba 5b3c e813 d53d
000002e0: a6eb d7bc 3a19 833d b787 febd e59e 103e
000002f0: 1925 edbd 12b4 893e 3aa3 833d 62b1 5abd
00000300: 9eac 823e e4e0 763c 851c babc 436e eb3d
00000310: 314b 63be f998 8bbe 356f 083e 67cd 8b3c
00000320: d1b4 e63c ac1a 5fbd f854 2a3e 29d9 8d3c
00000330: 25f8 27bd df25 dcbc 02c9 fdbd 04e4 0dbb
00000340: 0c0c 07bd 407e f03d 4f99 c5bd b564 8abd
00000350: d093 17be 7807 8c3c b3e7 aa3d 0ec0 19bf
00000360: b728 293e 0adc 883e 093b dabd bece 5bbe
00000370: 9686 7cbd 4050 f23d c177 6fbd e5c1 5d3c
00000380: cd6b f73d c9e7 be3d c165 19be c756 093e
00000390: 5a4e 003e 2ac0 7f3d 70df e13d 64de debc
000003a0: a558 133e 6d38 b6bd e306 bbbd 2d65 d7bd
000003b0: 215f a0be 7df3 243d 4b1d 213d a2d0 c7bd
000003c0: ba71 fb3d 250c adbe 16ab 4dbd b632 173e
000003d0: b41f 0dbd c5d9 c43d 79de 8a3d b420 3ebe
000003e0: 5d09 013e 4011 563c 31a3 b33d 790f 30bd
000003f0: 0397 3fbe 6319 0f3d c96d ac3d 316f 9cbe
0.011856421 -0.2783867 0.029410433 -0.04059483 -0.22286244 -0.14947118 -0.1998417 0.106313035
0.10231406 -0.46037394 0.07697175 -0.46104875 -0.13539553 -0.065640844 -0.01275559 -0.015459834
0.19672318 -0.01872118 -0.7705765 0.0795344 -0.21060853 0.26158944 -0.22300468 -0.2071041
0.18703754 0.03774882 -0.15307489 0.093235575 -0.040719282 0.03242515 0.02944942 0.36982447
-0.18266693 -0.053114805 0.06859474 -0.062235128 -0.04023125 -0.23243198 0.2802608 -0.10424657
0.20080853 -0.024220569 0.06864709 0.035472807 -0.22214845 0.022468697 -0.06547969 -0.8136677
-0.051745832 0.12955943 0.037107065 -0.05973081 -0.16174188 -0.081984386 0.0006267984 -0.2657626
0.02688092 0.10423132 0.012225958 -0.07618844 0.13206908 0.14595729 -0.032665983 0.12260049
0.27081516 -0.004065697 -0.014717661 -0.013286444 -0.0014839004 0.11880852 0.082655825 0.09455869
0.09702811 0.04565099 -0.0055101565 0.22051498 -0.07957385 -0.113939434 0.0494469 0.097968675
0.10798132 0.12295946 0.08296792 -0.059813607 -0.2980005 -0.116952784 -0.26125512 0.001576216
0.1943512 0.26847765 -0.063305594 0.06747854 -0.31931585 0.10714126 0.12044376 0.050547402
0.07323485 -0.13661467 0.022217238 0.03710687 0.0005041477 0.20393476 -0.1738781 0.13139851
0.14063118 0.34384003 0.19492207 -0.0652775 -0.14416286 0.056931414 -0.04351253 -0.23210873
-0.01603285 -0.012890049 0.051597465 -0.485993 -0.17839184 0.1639876 0.030322816 0.062874824
0.067987494 -0.0876855 0.108882084 -0.08677858 0.053774167 0.09935843 -0.43735838 -0.093082696
0.005497511 0.44013685 -0.006057348 0.10404453 -0.21674925 -0.014028023 0.121337734 0.37164715
0.047623847 -0.147262 0.15215378 -0.15542734 0.09260525 -0.14350742 -0.06330439 -0.09702586
-0.007760146 -0.14237075 -0.01795127 0.0639655 0.053049963 0.03344021 -0.14949149 -1.1871047
-0.058027424 -0.41916263 0.14749768 -0.14377719 -0.017537264 0.28487334 0.13773738 0.0018780164
0.09872459 -0.07249534 -0.06086947 -0.47403458 0.29300508 -0.00971707 -0.020562671 -0.12330069
0.107056 -0.19648649 -0.089517266 0.08282312 -0.11432804 -0.018849608 -0.13925742 0.07167934
0.17436114 0.053228997 0.04595717 -0.12288762 0.035250247 0.022113807 0.013411172 0.104041874
-0.026357483 0.06401296 -0.12428229 0.14123113 -0.115793414 0.26895195 0.06427617 -0.05339182
0.2552232 0.015068267 -0.022718677 0.1149564 -0.22196652 -0.27265146 0.13323672 0.017065717
0.028162392 -0.054468796 0.16633976 0.017315464 -0.041008133 -0.026873527 -0.12391855 -0.00216508
-0.032970473 0.1174283 -0.09648382 -0.067574896 -0.1480248 0.017093405 0.08344974 -0.6005868
0.16519438 0.26730376 -0.10655791 -0.21465585 -0.06165179 0.11831713 -0.058463816 0.013534998
0.12081108 0.09321553 -0.14980222 0.13412009 0.12529889 0.06243912 0.110289454 -0.027205653
0.14389284 -0.08897481 -0.09132173 -0.105173446 -0.31322578 0.04027127 0.039334577 -0.097565904
0.12277551 -0.33798328 -0.05021199 0.14765438 -0.034454063 0.09611849 0.067807145 -0.18567163
0.12601228 0.013065636 0.08771361 -0.042983506 -0.1870995 0.03493632 0.08419377 -0.30553582

fc2.bias f4 [64]
00000000: 8041 763d 52a2 af3d 9a3f 44bd d80a 553d
00000010: 211c 513e 80fc 253d 8198 0cbe 33aa 0ebe
00000020: 872e c9bd 063d 76bd 015e 3cbc ef26 c9be
00000030: c9bc 95bd b654 ba3d ae56 2cbd f616 42be
00000040: 0e19 283d 601e 80be ed8f 90bd fcdd 95bd
00000050: e65e 1a3e 28c1 533a b8f8 0ebe c818 253e
00000060: bdc0 b6be e73d 86bd 761d d73d 1e8a b2bd
00000070: b262 9cbe 0140 46be f9d5 a9bd 16e3 063e
00000080: 0075 003e d34b 7cbc 1868 42bd 31a3 123e
00000090: a84a b0ba 25c9 813d 45cf 263e d5dc b6bd
000000a0: a0a2 fabc cb6d ccbd b00c 203d a3f3 a9bd
000000b0: e3a3 98be bef8 66be e7c5 48bb 2d86 bebe
000000c0: 05f5 6a3c 2469 06bd 27cf 8bbd 6891 64be
000000d0: 6663 353e e243 2fbe 4d3e 84be ae01 5ebd
000000e0: 57fd b3bd 634e adbe 24a6 60bd f646 b33d
000000f0: 5e9b 73bd 06f5 32be 5255 a7be 3a95 123c
0.06012106 0.08575882 -0.047912218 0.052012295 0.20420887 0.040524006 -0.1373005 -0.13932113
-0.098233275 -0.06011679 -0.011497022 -0.39287516 -0.073113985 0.090981886 -0.04207485 -0.18954071
0.04103952 -0.25023174 -0.07058702 -0.07317731 0.15075263 0.0008077794 -0.13962066 0.16122735
-0.35693923 -0.06554776 0.10503666 -0.0871775 -0.3054405 -0.19360353 -0.08292765 0.13172564
0.12544632 -0.015398937 -0.047462553 0.14320065 -0.0013449984 0.063371934 0.16290005 -0.08928839
-0.030595124 -0.09981879 0.0390746 -0.08298423 -0.29812536 -0.22555825 -0.0030635537 -0.37211743
0.014340644 -0.032815114 -0.068266205 -0.22321093 0.17713699 -0.17115739 -0.25828782 -0.05420082
-0.08788555 -0.33848867 -0.054845944 0.08753769 -0.05947434 -0.17476282 -0.32682282 0.008946711

fc3.weight f4 [1, 64]
00000000: 4d81 163d 84e0 823e a0cb adbd 3dd2 c7bd
00000010: 32a4 c83d 64ff da3e aab0 c1bd 5056 1abd
00000020: 4996 de3d d57f 323f a53e 73be 6a14 e9be
00000030: 9814 1a3e 5823 fd3d c8a1 ecbd 566a 7fbd
00000040: f718 073e bafc 94be 108c e53d eb47 55be
00000050: 6b2e 463e 36d9 cd3d c7c1 23bd ed52 463e
00000060: 7707 a8be c1bb 2abe 1a6f 513d 997e 1d3e
00000070: e8e4 3cbe 8884 91bd 373c d43d 1b0c 613d
00000080: 5824 d73d 0693 9cbe cb6a 85be 226e 143d
00000090: a9f4 69bd 97aa 5e3e 40cb febd da98 95bc
000000a0: 6fc3 813d 1c39 12be 996a ef3c 7a30 40bd
000000b0: fcb3 85be fffc 91be 2933 f63c 0f35 51be
000000c0: f01e 373c 3b9e 243e 2219 f1bd c398 73be
000000d0: edef 0f3e 4543 bbbd 472f 48bb b826 a7bc
000000e0: dc9c 323e 4c60 23bf 3ffb 77bc 9e43 423e
000000f0: ab7c 853c 462a 0bbe 2202 87be dbd5 903d
0.036744405 0.25561917 -0.08486104 -0.09756897 0.09796943 0.42772973 -0.09457524 -0.03767997
0.10868508 0.69726306 -0.23754366 -0.45523387 0.15046918 0.12360257 -0.11554295 -0.06235727
0.13193117 -0.29099065 0.112083554 -0.20828216 0.19353645 0.10051195 -0.039979722 0.19367571
-0.32818195 -0.16673185 0.051131345 0.15380324 -0.18446696 -0.071053565 0.103630476 0.054943185
0.10504979 -0.3058092 -0.2605804 0.036237843 -0.05711809 0.21744762 -0.124411106 -0.018261362
0.06336104 -0.14279598 0.029225634 -0.04692123 -0.2611388 -0.28513333 0.030053692 -0.20430396
0.01117681 0.16075985 -0.11772372 -0.23788743 0.14056368 -0.0914369 -0.0030545758 -0.020404205
0.1744265 -0.6381881 -0.015135585 0.18971106 0.016294798 -0.13590345 -0.26368815 0.0707204
